.dart_tool/chrome-device/Default/optimization_guide_prediction_model_downloads/45bd169f-6b20-487e-90c7-7cc99b0a1ff4/model.tflite (tflite, 410364 bytes, 166 tensors)

context_transformer_0/bottleneck_input/norm/add f4 [32]
00000000: fc18 3d3d 982f 823e 7a1b 19be 7f79 0dbe
00000010: 4ed3 f6bd 680d ddbd 4c9c 9abd 0fa0 45bd
00000020: 78a2 b43c 0695 e13d 40ab 70bc d6d6 273e
00000030: 2dc1 60bd 6801 04bc 2b52 b63c 6cc0 33bd
00000040: a80f c8bc 0488 863d d4df 3abe 6ef3 3a3e
00000050: b68b 173d fbda edbd 7d5c 893c 42b1 5cbd
00000060: 36e4 d5bc 00f5 3dbd 50f0 cabd 0c84 a7bd
00000070: a0e9 0f3e f6c0 13bd aae4 cbbd c530 80bd
0.046166405 0.25426936 -0.14951888 -0.13815878 -0.12052022 -0.10793573 -0.075493425 -0.048248347
0.022050127 0.11014752 -0.014689267 0.16390547 -0.054871727 -0.008056976 0.022255978 -0.04388468
-0.024421528 0.06568912 -0.18249446 0.18256924 0.036998473 -0.11614033 0.016767735 -0.053879984
-0.026109796 -0.04637623 -0.09909117 -0.08179483 0.14053965 -0.036072694 -0.099557236 -0.06259302

context_transformer_1/bottleneck_input/norm/add f4 [32]
00000000: 385c e0bd a7f8 bd3d 7428 843d 608b 5cbe
00000010: 0d93 3e3e a00a a7bc 909c 843e d3d8 1fbe
00000020: e4a1 fdbd b23f 08bd 4a9a 3b3d e21b 853e
00000030: 02ab af3c 7852 6c3d f169 183e 8040 1eba
00000040: 0c0f 3bbd c4e3 34bd 0a34 7cbd e33a b8be
00000050: db98 df3d 5eb8 b5bd 8c8f be3c acf0 73bc
00000060: b418 ef3d 3840 84bd 38e4 2d3e 22a9 863d
00000070: df15 4cbe 0ba0 26be adf2 9a3d 9898 32bb
-0.10955089 0.09275942 0.06453028 -0.21537542 0.18610783 -0.020390809 0.25900698 -0.15610056
-0.12384394 -0.03326387 0.04580144 0.25997835 0.021443848 0.057695836 0.14884163 -0.0006036833
-0.045668647 -0.044162527 -0.061573066 -0.35982427 0.10917827 -0.08873056 0.023261808 -0.014888924
0.116746336 -0.06457561 0.1698159 0.06575228 -0.19930218 -0.16271989 0.07565818 -0.0027251597

mention_transformer_0/bottleneck_input/norm/add f4 [32]
00000000: 58d9 213e 1d2d 86bd c852 44be c17b 81ba
00000010: 0671 44bd 6bd5 a93d c44b dcbd 41a8 b83d
00000020: a335 fdbd 9eb1 5b3e d2fc ed3d 238a fc3d
00000030: 628c cb3c 0b39 e7bd 08fe 83bd afb3 cc3c
00000040: 863a 293d 4c79 103e 4a36 f73c 8ca4 abbd
00000050: 31ca a23d 801f ebbd 27f6 d0bd 53a4 e43c
00000060: 8b7a 99bd 6069 ed3d 4cd5 5b3d 5e37 fabc
00000070: c430 73bc b598 c7bd 8cf4 913e 1030 4d3d
0.15805566 -0.065515734 -0.19172204 -0.00098788 -0.04795935 0.08292659 -0.10756639 0.09016467
-0.12363746 0.21454474 0.11620487 0.12331035 0.024847213 -0.11290177 -0.06444937 0.024988024
0.041315578 0.14108771 0.030177254 -0.08380994 0.07948721 -0.114806175 -0.102032 0.027910387
-0.07494076 0.11592364 0.053670213 -0.03054398 -0.01484317 -0.097459234 0.28506887 0.050094664

mention_transformer_1/bottleneck_input/norm/add f4 [32]
00000000: 9791 36bd 8e0c d13d 4434 fa3e e40f fa3c
00000010: b2fc f83d 92c2 a4be ec9a a5be d41e 713c
00000020: 345a 57bd b7cd 14be 4641 b3be 8e0d 04be
00000030: 6230 80bd 41c9 20be 8aa2 303e 077d a33d
00000040: b016 ffbd d14f df3e 60d1 133d f97c ac3d
00000050: 90ee c1bd a811 243e 44d4 11bd f2ba 97be
00000060: 6e0d bbbe e031 afbe 2c6e 1e3d 79b1 d7be
00000070: 5a9f a6bd cf29 e9be c888 95be 8204 13bd
-0.04457244 0.10207473 0.48868 0.030525155 0.12157573 -0.32179695 -0.3234476 0.014716823
-0.05257626 -0.14531599 -0.35010737 -0.12895796 -0.06259228 -0.15701772 0.17249504 0.079828314
-0.12455499 0.43615583 0.036088347 0.08422274 -0.0946933 0.1602236 -0.035602823 -0.29634815
-0.36533684 -0.3421774 0.038679287 -0.42127588 -0.08135863 -0.4553971 -0.29205918 -0.03589297

context_transformer_0/attention/value/add;context_transformer_0/attention/value/einsum/Einsum;context_transformer_0/attention/value/add/ReadVariableOp/resource f4 [32]
00000000: c745 2bbd 2771 56bd cc27 42bd dfda 42bd
00000010: c375 013d 84ab 6ebd 2f58 05bd 415a 263d
00000020: 692c 88bd 7548 afbd f06c babd eb72 9c3d
00000030: 73a8 87bd 7674 a3bd 320b bbbd 521d c83d
00000040: 347e 8bbd 2229 7c3d aee5 473d 5310 73bd
00000050: 8843 983d f555 93bd 8117 a73c 983c 86bd
00000060: 688a 19bd 4bd8 a43d 08d3 923d 168a af3d
00000070: 97eb afbd f0db 963d 356a 52bd faf8 cd3d
-0.04181459 -0.052354004 -0.047401235 -0.047572013 0.031606447 -0.05826904 -0.0325548 0.040613417
-0.066490956 -0.08558742 -0.091028094 0.07639106 -0.06623926 -0.079811975 -0.09132995 0.097712174
-0.06811181 0.061562665 0.048803024 -0.05934174 0.074347556 -0.071941294 0.02039695 -0.06554526
-0.03748551 0.08049067 0.07169157 0.0857126 -0.08589857 0.073661685 -0.05137082 0.10057254

context_transformer_0/bottleneck_input/norm/mul f4 [32, 32]
00000000: a738 ca3d be66 0dbe cb84 973e f534 e1be
00000010: 254e f4be 5458 55be 9ecb a7be 8420 b73c
00000020: c623 06be 79b5 0b3f 9e6e 223e 44ab debe
00000030: 1557 97bc 86a2 c9be eef9 55be 0a67 02bf
00000040: 108f 5c3e 9527 20be da8d fabc 407a bebd
00000050: a3d5 26be 82eb e3be 5b06 b63b 6b97 8bbd
00000060: 3231 0e3d 99c3 8abe 9046 efbd 55bd 18be
00000070: 9466 53be 086f 2cbd 28a7 cebd 7a4e c3be
00000080: b9e7 473d a692 f73d 73f0 78be 7a5a 4ebe
00000090: cf5c 7a3f 1843 abbd 0a2e 873e 00d4 f6bd
000000a0: 90cc a43c 6fc9 893e fd19 4bbe c0b5 a73d
000000b0: 4897 793e fbb8 13be e2df 303f cf88 e43d
000000c0: 35df 3c3e 5ce5 72be bfda 2cbf 4656 89be
000000d0: 9703 773e 3498 9c3e 2740 853e ab53 e43d
000000e0: 0c2a 4abd 7efd 80be 2255 233d e755 243e
000000f0: d416 153f b0ef 953e 9fe5 b93e 22a2 c63e
00000100: 995f 953d f290 06be 6833 623e 057c 8c3e
00000110: 4b72 043c 32e8 d63e a961 91be 2c94 d2bd
00000120: f581 633d 4ade dfbd 649e 6b3e 6a42 623e
00000130: cdbd fb3d b891 08be d5b3 153e 5283 c73e
00000140: 9b09 e1be 7614 36bd b4fd f63e d92d c33e
00000150: 95ef 2cbe 3736 c73c 32b7 18be b58f 29be
00000160: 7751 aebd 9321 413e 8046 e03e 9a1a a33d
00000170: a6f1 80be 05b8 7d3e 1e4c 0bbf 0f7c c6bd
00000180: f079 063e 93bb 27bd ac07 113e 20cc fb3d
00000190: 5088 86bd a7fb 0f3e b1d6 8dbd 4dd7 f5bc
000001a0: 13e3 01bc 7b44 433e 8689 d63d f6a9 ee3d
000001b0: b271 c63c 25ae 3b3e 9fb8 993e 09ae c03d
000001c0: 021f f3bd 1b18 0c3e 8ecd ef3d c796 813e
000001d0: 3770 4dbe f311 f63d 88e7 debd b423 87be
000001e0: 8fb3 54bd eb42 393e 9915 013e fe98 433e
000001f0: cd06 a3be 1944 c33d f167 a1bb 4985 b8bd
00000200: b6f2 51be f89d 373e 3b9d ef3d db0a 393e
00000210: 647a 21bd 1407 d63e c9db f2bd a3a4 b6bc
00000220: d14a 94bd f9cf 0f3e b401 013f ee7e 35bd
00000230: 4c6c 8a3e e27b 723d 66e2 033f 4e8c a7bd
00000240: 1709 873d e98c 97bd 01ea 7c3e a9e6 ebbd
00000250: 0da4 dcbc ab5f 643e 7346 283e 486b 32be
00000260: fa6c 323e f088 3ebd 20cb 3a3e 92f3 363d
00000270: a59a 2f39 fae2 e03e 5b68 17be f89c dfbd
00000280: 0345 b6be 64c8 003e 10e7 693d 96c3 fbbe
00000290: 5f0b f53e 3082 cf3e b425 573d d037 113e
000002a0: 7e80 743e cb2b fd3e 84df d9bc db93 143e
000002b0: 24b1 29be 756f 033e c13a 453f 94ca e43d
000002c0: 69d5 b9bd 9605 1ebe ec75 963e aa62 a13d
000002d0: 26a7 cc3d e885 2ebc 50d3 51be cb02 933e
000002e0: 9fb6 5ebe d356 83be 3fc7 903e e125 d93e
000002f0: 3aa8 043e 77e4 733e aa65 473e 5934 243e
00000300: c8e8 80be 3de7 7c3e 29a8 423e 43cb d7bc
00000310: a74f fcbe 5403 323f a3fe cbbe f165 943d
00000320: 0d2e 5cbe 8533 31bd 6135 afbe a4ae db3e
00000330: aef4 ed3e 4e08 af3e 7323 b63e 528f 863e
00000340: 9955 bf3d 0f66 d7be 8052 96be 3189 09bf
00000350: c731 4bbd 9827 063f bb81 953e 8562 44bd
00000360: b51d 4bbd 7b00 3bbf a4a2 633d 34a7 bc3e
00000370: fcae 8ebe 408d 383f 8d0c 5fbe 9c0a 903e
00000380: 3d16 4abd 13de e5be 8c7b 793e 3a60 00bd
00000390: a20d 04bf 3c01 8ebe 0f92 193f e96e 7abc
000003a0: 2a09 083e 0d24 ad3e 0aa6 d13d 2d63 03bf
000003b0: ce6a 073e a3df 5cbe d1d3 8abe 9615 dabe
000003c0: add7 4e3e fdfa f7bd 08af a73e e819 b33e
000003d0: 28ff 2bbe 4d26 31bf 8891 973c 5740 4a3e
000003e0: ecab c8be 3561 b13e 0c65 92be d944 f2be
000003f0: 45df 07be 5ff4 84bf 9b27 763b 3393 c6be
0.09874087 -0.13808724 0.295935 -0.43985716 -0.4771587 -0.20834476 -0.32772535 0.022354372
-0.13099584 0.5457378 0.1586251 -0.4349004 -0.018474141 -0.39381808 -0.20896122 -0.50938475
0.21538949 -0.156401 -0.030585218 -0.09300661 -0.16292433 -0.44515616 0.005554957 -0.0681599
0.034714885 -0.27102354 -0.116833806 -0.14915974 -0.20644599 -0.042098075 -0.10090476 -0.3814581
0.048804972 0.12088518 -0.24310474 -0.20151702 0.97797865 -0.083624065 0.26402313 -0.120521545
0.020117074 0.26911494 -0.19834132 0.08188963 0.24374115 -0.14426033 0.6909162 0.11158907
0.18444522 -0.23720306 -0.6752128 -0.26823634 0.24122463 0.30584872 0.26025507 0.11148771
-0.049356505 -0.251934 0.03987611 0.16048394 0.5823796 0.2928443 0.36308 0.38795573
0.072936244 -0.1314123 0.22089922 0.2743837 0.00808389 0.41974026 -0.2839482 -0.10282168
0.05554386 -0.1093107 0.2300964 0.22095647 0.12292061 -0.13336837 0.14619382 0.38967377
-0.4395264 -0.044453107 0.48240435 0.38120916 -0.16888268 0.024317844 -0.14913633 -0.16558726
-0.08511632 0.18860464 0.43803787 0.07964058 -0.25184363 0.24777229 -0.5441302 -0.09691631
0.13132453 -0.04095037 0.14163083 0.12294793 -0.06568968 0.14060842 -0.06925715 -0.03000989
-0.007927674 0.19069092 0.10475449 0.11653511 0.024224136 0.1832815 0.30023667 0.094081946
-0.11871149 0.1368107 0.11709128 0.25310346 -0.20062338 0.12015142 -0.10884005 -0.26394427
-0.051929053 0.18091933 0.12605895 0.1910133 -0.31841126 0.09534473 -0.004925721 -0.09009797
-0.20502743 0.17931354 0.11699911 0.18070547 -0.03942336 0.41802275 -0.11858327 -0.022295302
-0.072408326 0.14044179 0.50393224 -0.044310503 0.2703575 0.059200175 0.5151733 -0.08181058
0.065935306 -0.07399923 0.2469864 -0.11518604 -0.026933694 0.2230212 0.16433124 -0.17423737
0.17424384 -0.046517313 0.18241549 0.04466588 0.0001674691 0.4392317 -0.14785902 -0.10918611
-0.35599527 0.12576443 0.057105124 -0.49172658 0.47860238 0.40529013 0.05252619 0.14181447
0.23877141 0.49447474 -0.026595838 0.14509527 -0.1657148 0.12835486 0.77042776 0.11171451
-0.09073908 -0.15431818 0.29386842 0.07880147 0.099928185 -0.010652043 -0.20490766 0.28713068
-0.21749352 -0.2565218 0.28277013 0.42411712 0.12954798 0.23817621 0.19472376 0.16035594
-0.25177598 0.24697585 0.1900946 -0.02634204 -0.4927952 0.6953633 -0.3984271 0.07246006
-0.21501942 -0.043262023 -0.34220412 0.42906678 0.46475738 0.34186023 0.3557392 0.2628122
0.09342498 -0.42070052 -0.29359818 -0.5372496 -0.04960802 0.52404165 0.2920054 -0.047945518
-0.049588878 -0.7304761 0.055575028 0.36846316 -0.27867877 0.7209053 -0.21782131 0.28133094
-0.049337614 -0.44895992 0.24363536 -0.03134177 -0.515833 -0.27735317 0.5998849 -0.015285232
0.13284746 0.33816567 0.102367476 -0.51323205 0.13224337 -0.21569686 -0.27114728 -0.42594594
0.20199461 -0.12108419 0.32750726 0.34980702 -0.16796553 -0.6919907 0.018502012 0.19751106
-0.39193666 0.34644476 -0.28592718 -0.47318152 -0.13268764 -1.0387076 0.0037560228 -0.3878418

context_transformer_0/kq_shared_bottleneck/norm/mul;context_transformer_0/kq_shared_bottleneck/norm/add;context_transformer_0/attention/key/einsum/Einsum;context_transformer_0/attention/key/add;context_transformer_0/attention/value/einsum/Einsum;context_transformer_0/attention/key/add/ReadVariableOp/resource f4 [32]
00000000: 315f ba3d 8776 bbbe 870f bebe b856 85be
00000010: 0c37 b5be 3850 a5be d762 c13c 0025 e63e
00000020: 7231 90be dfb5 923e 4256 c0bb 48c5 d5be
00000030: d0c7 523e cd31 a5be ccd5 953e 3b24 63be
00000040: 656a 773e b82e 6a3e 04fe b7bd e439 18be
00000050: 30ef 043e 5314 bfbe 86de babd ea8c 5a3d
00000060: bf80 c1be 9657 c73e 635c 7d3e fcb1 933e
00000070: d664 983e 8b87 913e fd39 733e 3442 cfbe
0.091001876 -0.36613867 -0.3712122 -0.26042724 -0.3539356 -0.32287765 0.0236067 0.44950104
-0.28162724 0.28654382 -0.0058696577 -0.41752076 0.20584035 -0.32264557 0.29264677 -0.2218179
0.2416168 0.22869384 -0.089839965 -0.14865834 0.12981868 -0.37320194 -0.09124474 0.053357042
-0.37793538 0.3893401 0.24742274 0.2884673 0.29764432 0.28423724 0.2375259 -0.40480196

context_transformer_0/kq_shared_bottleneck/norm/mul;context_transformer_0/kq_shared_bottleneck/norm/add;context_transformer_0/attention/key/einsum/Einsum;context_transformer_0/attention/key/add;context_transformer_0/attention/value/einsum/Einsum;context_transformer_0/attention/key/add/ReadVariableOp/resource1 f4 [32, 32]
00000000: 029c 093e bc1f 963d 1baf 91bd 7480 ed3c
00000010: 60ca 0c3e b9dc 83bd 3bfa 54be d25e 233d
00000020: c654 f2bc dc48 ed3c 5b1d 03be 3149 54bd
00000030: 01b0 943c d6d7 de3d df18 a0bd ae09 2bbc
00000040: 3d53 a9bc 2b14 5cbd b2b0 503c d2fb b1bd
00000050: 68b2 b23d 26ea 0dbe d533 ff3d 9497 903c
00000060: 6a69 70bd a515 293d e983 acbc 7f44 743c
00000070: caef b93c 192d 1dbe 95d5 373d 4969 94bc
00000080: c0cd 03be dc97 603d 6f26 2a3e d1f5 863c
00000090: 6958 b8be f925 81bd 8fe9 d73e 75c5 69be
000000a0: 55b3 223e e114 07be da42 2f3c b495 413e
000000b0: 0266 34bc a5ab 8d3b ac51 44bb 023a 023d
000000c0: d41a f33d ef66 1b3e 8b82 08be 9a6d c23d
000000d0: 6ff7 68be 9f3c 513e 2de0 92bc 3f77 a23d
000000e0: 4af2 d5bd f74f 85bd 2e38 4ebe 2722 09be
000000f0: 6381 6b3d 952a 28bc 528f 913d 642e df3e
00000100: 30c1 09be e084 9e3d 83ae 1c3e 45c9 3f3d
00000110: 2e0c aabe e5d4 73bd 7544 be3e 168b 85be
00000120: 06ec 283e c751 0dbe 6268 283d 5351 433e
00000130: 6fc9 e93c 5c52 673d ed80 a83c 1d2b ff3c
00000140: 4564 fe3d aae3 263e ab9b 42be 6a95 e03d
00000150: 4fa6 73be da02 2b3e 7d14 f9bc 22e1 cf3d
00000160: 15ec ffbd 6012 6cbd 08a5 39be 82b3 20be
00000170: 46ea 863d 7e52 8abc 103e 613d f8d6 dc3e
00000180: 3ffe 07be 5bd5 59bd 4f49 063e 488e cb3b
00000190: a035 b0be e263 723d b7fe eb3e 8a7d 31be
000001a0: 6839 123e 3baf 01be 8345 f63d f217 033e
000001b0: b61e 77bd bbe5 d3bd e6a2 ba3d bd01 013e
000001c0: 68b4 ba3d 6452 183e b23f f9bd 1749 1d3e
000001d0: 53bc 43be 71ec 583e 3fd2 72bd a661 2d3d
000001e0: 7c88 97bc 3c2c 2cbd 0b3b edbd 2e6b 32be
000001f0: 33d7 19bd 63e2 023e 76e2 22bd b55e ad3e
00000200: 698a 03be 5f44 873d 42f9 293e f750 a63c
00000210: 45ee b7be f22c a5bc d85e d93e 5d1b 72be
00000220: 56e3 1b3e 9822 f4bd 9507 c03c e61c 323e
00000230: 67f9 8ebc 2ab6 0bbb 200d f3bb d0d1 083d
00000240: 243e cf3d d6db f83d 04c3 28be 1718 d13d
00000250: 903c 71be 64fd 533e b9eb 52bd 601c c73d
00000260: 957f d9bd 6d52 84bd 9c66 31be 4a02 14be
00000270: c0bc 183d 765f a73c bd1e 993d 64d4 c63e
00000280: a453 00be 942f e33c d725 163e a701 56bb
00000290: 45b9 a4be f85d e8bc b8e6 cb3e 26bd 6cbe
000002a0: 02d1 053e 1aaf fdbd 0b4d 133d 0ccd 363e
000002b0: 0997 feb9 0f64 bd3b 3be0 ed3b c429 493d
000002c0: dbe2 cd3d 2fde 0b3e ec0d 08be 262c f03d
000002d0: 6158 3fbe ac0e 183e 1361 643c 689d 9a3d
000002e0: 9844 b4bd a949 3fbd e5a5 55be 315c 0abe
000002f0: 06fb 033d 2f89 ae3c 515f 513d 5f58 de3e
00000300: 4d77 cb3d a617 2c3e 4935 4bbd 2e71 56bd
00000310: 984a 513c 3593 06be 1e6b ab3e 2fc9 32bd
00000320: 3073 a2b9 24b8 aa3d cddd 74bd 16e8 79bd
00000330: d17e 3d3d 3e0b eb3d 1968 d1bd 7a93 e8ba
00000340: 10ea 28bd a1b4 1fbd ecc0 cfbc 0594 e83b
00000350: 04e6 2b3d e9de 97bd e250 8dbd 8bb5 673d
00000360: da00 90bd 2ccb fd3d e4cf f6bb 9176 a33c
00000370: 30b3 873d a3da 30be 6be1 a43d f499 ed3e
00000380: 107e 073e a0e5 0dbe d2a3 40be 3b87 3ebd
00000390: cc2d be3e f523 bf3d 2eaf bebe 1645 933e
000003a0: 9341 34be 85f7 343e 136f bc3d 4840 41be
000003b0: d7a8 07bd 29b9 92bd 3553 ce3d 2329 fd3b
000003c0: 2ccf 06be 8100 32be a065 473e 3fbd a7bd
000003d0: 45ba 8a3e d4d0 6ebe e739 563d c97c 14be
000003e0: 1c53 293e c584 8a3d 64d2 7d3e e4a4 dc3d
000003f0: 58d1 cabd cac3 533d d107 e4bd cedd e9be
0.13438419 0.073302716 -0.07113477 0.028991915 0.13749075 -0.06438584 -0.2079858 0.03988535
-0.029581439 0.028965406 -0.12804167 -0.051827613 0.018150331 0.10881011 -0.07817244 -0.01043932
-0.020669574 -0.05373017 0.01273744 -0.08690609 0.087254345 -0.13858852 0.12461058 0.017650403
-0.05869428 0.041280407 -0.021058993 0.014908909 0.022697348 -0.15349235 0.044881422 -0.01811661
-0.12871456 0.054832324 0.16616224 0.016474636 -0.36004952 -0.06306071 0.4217038 -0.2282923
0.15888722 -0.13191558 0.010697091 0.18904763 -0.011010649 0.00432344 -0.0029955907 0.0317936
0.118703514 0.15175985 -0.13331048 0.09493561 -0.22750638 0.20433281 -0.017929161 0.07932901
-0.104466036 -0.06509393 -0.20138618 -0.13391934 0.05749644 -0.010264059 0.07107414 0.4359008
-0.13452601 0.07740188 0.15300946 0.046822805 -0.33212417 -0.059529204 0.37161604 -0.26082677
0.16496286 -0.13800727 0.041115172 0.19073991 0.028538434 0.05647503 0.02056929 0.031148488
0.12421469 0.16297784 -0.19004695 0.109659985 -0.2379391 0.16700307 -0.030405277 0.101503626
-0.12496201 -0.05763471 -0.1812936 -0.15693477 0.06587653 -0.016885038 0.054990828 0.43132758
-0.13280581 -0.053181987 0.13113903 0.0062120296 -0.34415913 0.059177287 0.4609277 -0.17333046
0.14279711 -0.12664501 0.12024977 0.12802103 -0.060332023 -0.10346552 0.09113102 0.1259832
0.09116441 0.1487518 -0.12170352 0.15359913 -0.19114809 0.21183945 -0.059282538 0.042329453
-0.018497698 -0.042034373 -0.11583527 -0.17423698 -0.037558746 0.12781672 -0.03976675 0.33861318
-0.12845768 0.066048376 0.1659899 0.020302279 -0.35923973 -0.020163033 0.42455173 -0.23643251
0.1522344 -0.11920661 0.023441115 0.17393836 -0.017452909 -0.0021318295 -0.007417336 0.033403218
0.10119274 0.121513054 -0.16480643 0.10209673 -0.23558259 0.2070213 -0.051494334 0.09722209
-0.106200375 -0.06461034 -0.17324299 -0.14453998 0.03728938 0.020431262 0.07476566 0.38833916
-0.12531906 0.027732648 0.14662872 -0.0032654793 -0.321726 -0.02836512 0.39824462 -0.2311903
0.13068011 -0.123869136 0.035962146 0.17851657 -0.00048559185 0.00577975 0.0072593964 0.049112096
0.10053035 0.13658975 -0.13286561 0.11727171 -0.18686058 0.14849347 0.01393916 0.07549554
-0.08802146 -0.046701107 -0.20864065 -0.1351173 0.032221816 0.021305649 0.05111629 0.43426797
0.09934864 0.16805896 -0.049611364 -0.05235403 0.012774132 -0.13142093 0.3348016 -0.043648895
-0.0003098487 0.08335903 -0.05978184 -0.06101235 0.04626352 0.11476754 -0.10224933 -0.0017744147
-0.041238844 -0.03899062 -0.025360547 0.0070977234 0.041967407 -0.074155636 -0.06900193 0.056569617
-0.070314124 0.123922676 -0.0075321067 0.019953998 0.06625974 -0.17270903 0.080508076 0.4640652
0.13231683 -0.13857126 -0.18812492 -0.046515685 0.37144315 0.0933303 -0.37243026 0.28763646
-0.1760314 0.17672546 0.09200873 -0.18872178 -0.033120003 -0.07164223 0.10074464 0.007725851
-0.13164967 -0.17383005 0.1947236 -0.08190393 0.27095237 -0.23321849 0.052301314 -0.14500727
0.1653561 0.06763605 0.24787289 0.10773638 -0.099032104 0.05170039 -0.11134303 -0.45677036

context_transformer_0/kq_shared_bottleneck/norm/mul;context_transformer_0/kq_shared_bottleneck/norm/add;context_transformer_0/attention/query/einsum/Einsum;context_transformer_0/attention/query/add;context_transformer_0/attention/value/einsum/Einsum;context_transformer_0/attention/query/add/ReadVariableOp/resource;context_transformer_0/attention/Mul;context_transformer_0/attention/Mul/y f4 [32]
00000000: ceb1 693c 192f 3cbe ec1c 3fbe 6306 07be
00000010: e883 38be 2e27 31be b8c7 babd 5605 573e
00000020: 8346 b0bd cb5f c13d d2a7 a3bb d982 f1bd
00000030: 43b3 c3bd 4858 bbbd dfb5 ae3d 92ae c73d
00000040: d9fc 063e 7f04 053e 91c0 53bd b644 9cbd
00000050: 93dd 803d 1666 3cbe 754d 02bd c6d6 133d
00000060: 819a a8bd eb9c be3d 34a2 42bd 4324 41bd
00000070: e515 33bd a6c6 31bd 4aed 3ebd e45d bebd
0.014263583 -0.18377341 -0.18663377 -0.1318603 -0.18019068 -0.17300102 -0.091201246 0.20998129
-0.08607199 0.09442099 -0.004994371 -0.11792535 -0.09555676 -0.09147698 0.08530783 0.097500935
0.13182391 0.12989996 -0.051697318 -0.07630293 0.06292262 -0.18398318 -0.03181215 0.036093496
-0.08232594 0.093072735 -0.04751797 -0.047153722 -0.043722052 -0.043402337 -0.046613015 -0.09295252

context_transformer_0/kq_shared_bottleneck/norm/mul;context_transformer_0/kq_shared_bottleneck/norm/add;context_transformer_0/attention/query/einsum/Einsum;context_transformer_0/attention/query/add;context_transformer_0/attention/value/einsum/Einsum;context_transformer_0/attention/query/add/ReadVariableOp/resource;context_transformer_0/attention/Mul;context_transformer_0/attention/Mul/y1 f4 [32, 32]
00000000: 121d 41bb 077a 333c 379d b73c b19f f83b
00000010: 9cc3 adbc a37c 2dbb a7ba 1a3d 4c95 1cbd
00000020: 8b84 c73c 8112 88bc c46c 09bd 1272 0abb
00000030: 672c 213c b072 0a3d 794a 51bc c8f2 4abc
00000040: 778f 773c 0c41 f03c a240 debc 771c 29bb
00000050: f71e 0f3c 4434 e73c 958a e8bc 14be b23b
00000060: 2258 633b 61de 053b 1f06 5abb 899a 0a3c
00000070: 69b5 703c 63b3 ddbc 91b3 7abb 4605 463d
00000080: 5175 23bd 9375 e0bc 9bbe 8a3c efae 42bc
00000090: 8c03 cabc 75ba 443d 80d2 c2bc 1fe7 0c3c
000000a0: 7bb0 75bc 8706 6bbd 510a 1b3d f69a c53c
000000b0: b470 c8bb 66de 30bd adc2 0e3d aa99 853b
000000c0: 2d58 e23c b34b e43b 1ccf 613c 33f4 06bc
000000d0: 6ab1 febc 895c 1d3c b9d7 113c c334 8f3c
000000e0: 991c b5bc 99fb 22bd 2c27 40bb 7147 6abb
000000f0: 2e23 5fbc a70d 703d 444a 813c 9dce 1b3d
00000100: e0f4 4bbd adaf 3cbd 8210 c33c 6a32 0abc
00000110: 1dfd 0abd afe8 723d 484b e9bc 31f5 af3b
00000120: c2aa fdba 7821 43bd d04e c03c af02 9b3c
00000130: 54bb 2cba e744 67bd a4f5 8f3c 893f e13b
00000140: cf9f a43c 3a59 a83c 651a 8d3c aee6 dabb
00000150: 5d60 0fbd 1c63 2d3b c9c1 413c 6d75 8f3c
00000160: b524 dfbc b60c 38bd a716 8ebb c8a2 873b
00000170: 1ee0 77bc 4369 613d e466 833b fa19 4c3d
00000180: 2c23 cfbc 2728 69bd 22d6 4dbc 85e3 a9bc
00000190: d1ba 0c3c 17e8 633d 6f3f 8cbd fa58 953c
000001a0: e61d 2fbd 9349 e2bc 078b 0f3d 65f2 173c
000001b0: 4646 7ebc 1f0e 88bd 91d0 513d b448 b13c
000001c0: fa68 e8ba 1371 9fbb e9d0 423d ef0d aa39
000001d0: 3f02 8abc e364 c6bc 7e37 a63c b7d5 51bc
000001e0: c21d e43b f301 96bc 1bd4 d33c 881b b4bb
000001f0: 61e0 03bd 139e 8c3d 6015 26bb db07 f53b
00000200: c7a5 38bd ae88 3abd 59e1 8d3c a840 b4bb
00000210: b06d 11bd 95ea 6c3d 0d23 c2bc 8b53 82ba
00000220: 347e a0bc c723 3abd 91e2 183d f194 e23c
00000230: eb8b e83a aa3c 44bd f79b 1b3d d170 4d3c
00000240: d0ca 243c ae5e 493c 8aab 163c acba 3bbc
00000250: 689a 0ebd 23b5 f03b 6e7f 833c dd67 e53a
00000260: 25e3 dfbc 72d0 04bd abbd 87bb 686a a53a
00000270: e23f 99bc 46d7 5c3d 40e5 ce3b b293 373d
00000280: ec45 39bd 0b1c 53bd e77d 883c 51ff e7bb
00000290: b36b e4bc dbbc 273d 97a5 1dbd 9d55 1e3c
000002a0: 3121 83bc b088 11bd 472a e23c f60f 113c
000002b0: 8ada 91bb 0a05 44bd 7a5f 243d 13b4 003c
000002c0: 8fc6 da3c f845 a93c a4ca 873c 0d71 36bc
000002d0: 438d f7bc 70cf 2d3c eaf4 4a3b 8153 433c
000002e0: 7d63 dfbc b6a8 0dbd 83c4 27bb a855 afbb
000002f0: 12bd 8bbc a8f3 4e3d 82be e738 1e2f fe3c
00000300: 64ed ec3b 8261 463d 326d 01bb 3edb 053c
00000310: 6e01 e23b 2188 12bd 2393 f7bd 5533 233c
00000320: 4cdb 7abc a218 b2bc fabc 51bd a74a 99bc
00000330: 8f17 5e3d db8f 773d 30ac 57bd 45d9 a8bd
00000340: 7aa3 27bc 8b5d 12bc 4405 a6bc a69b 9dbd
00000350: 7697 96bb cbab 70bc 8600 a8bd eb66 9c3d
00000360: 9e3d 75bd 30d4 f2bb 83f0 e53c 0b49 ca3d
00000370: 7654 333d 66ce 04bd 614e 313d f3d3 21bb
00000380: 23cc 613d 1681 083d d1fb 94bc d28d ffbb
00000390: 1646 023d 7c78 42bd fde9 c93c 1a3e cd3b
000003a0: c570 673a 826f 663d 1411 e3bc 6d20 0cbd
000003b0: b757 313c 7d9d 0e3d ee95 51bc 766f 623c
000003c0: 9b66 05bd ff6a eebc afca 023c a327 063c
000003d0: 0d8a 523d 7b78 f9bb 02ab 52bc abc1 afbc
000003e0: 5f23 d93c 05d0 543d 69ca 273c 5e51 6c3b
000003f0: abe7 8e3c 2be1 38bd 4c6f a0bc bc0d 37bd
-0.002946679 0.010954387 0.022413833 0.007587396 -0.021211438 -0.0026471994 0.03777566 -0.038228318
0.024355194 -0.016610386 -0.033550993 -0.002112512 0.0098372465 0.03380078 -0.012774103 -0.012386985
0.015109888 0.029327892 -0.027130429 -0.002580432 0.00873541 0.028223164 -0.028386394 0.005454788
0.0034689982 0.0020426738 -0.0033267809 0.008459696 0.014691689 -0.027063077 -0.0038254003 0.048344873
-0.039906804 -0.027399814 0.01693659 -0.011882528 -0.024659894 0.04802938 -0.023782015 0.008600025
-0.0149956895 -0.05737927 0.037851635 0.024121743 -0.006116951 -0.043180846 0.034853626 0.004077156
0.027629936 0.006967032 0.013782289 -0.008236933 -0.031090457 0.009604582 0.00890153 0.017481213
-0.022108363 -0.039790723 -0.0029320223 -0.0035748149 -0.013619227 0.05860677 0.015782483 0.03803884
-0.049794078 -0.046065975 0.023811582 -0.008434871 -0.033932794 0.059303936 -0.02847828 0.0053698053
-0.0019353258 -0.04763934 0.02347508 0.018922178 -0.00065891934 -0.056462195 0.017573185 0.006874029
0.020095734 0.020550359 0.0172245 -0.006680331 -0.03500401 0.002645678 0.011825987 0.017512048
-0.027239183 -0.044933997 -0.0043361965 0.004139278 -0.015129117 0.055032026 0.0040100683 0.04982946
-0.025285326 -0.056923058 -0.01256326 -0.020738373 0.008589462 0.05564126 -0.068480365 0.018230904
-0.042753123 -0.027622974 0.035044696 0.0092741 -0.015519684 -0.066433184 0.051224295 0.021641113
-0.0017731481 -0.0048657744 0.047562514 0.00032435308 -0.016846774 -0.024218028 0.020290133 -0.012807301
0.006961555 -0.018311476 0.025857976 -0.005496446 -0.032196406 0.06866088 -0.002534233 0.007477743
-0.045079973 -0.045540504 0.017319368 -0.0055008717 -0.035504997 0.057840902 -0.023698354 -0.0009943111
-0.019591428 -0.045444276 0.037325446 0.027658911 0.0017741894 -0.047909416 0.037990537 0.012539105
0.01005812 0.01229064 0.009196172 -0.01145808 -0.034815222 0.007345812 0.016051974 0.0017502267
-0.02732999 -0.03242535 -0.004142483 0.0012620213 -0.01870722 0.05391624 0.00631395 0.044818588
-0.0452327 -0.051540416 0.016661597 -0.0070799966 -0.027883386 0.04095159 -0.038487997 0.0096639665
-0.016007038 -0.035530746 0.02760805 0.008853903 -0.0044511007 -0.047856368 0.040130116 0.007855433
0.026706008 0.020663247 0.016576119 -0.011135352 -0.030218726 0.010608539 0.0030968734 0.011921764
-0.02726912 -0.034584723 -0.0025599308 -0.005350787 -0.01705793 0.050525337 0.00011050423 0.031028327
0.0072304476 0.048432834 -0.0019748923 0.008169947 0.006897143 -0.035774354 -0.12088611 0.009960969
-0.0153110735 -0.021740261 -0.051205613 -0.018712355 0.054221686 0.060439926 -0.052654445 -0.08244566
-0.010231847 -0.008933435 -0.020266183 -0.07695703 -0.0045956923 -0.014689396 -0.08203225 0.076368175
-0.059873216 -0.0074105486 0.028068786 0.09877213 0.04378172 -0.0324234 0.04328764 -0.0024692982
0.05512632 0.03332623 -0.018186482 -0.0077988887 0.03180512 -0.047478184 0.024647707 0.0062635066
0.00088287547 0.056258686 -0.027718104 -0.03421061 0.0108241355 0.03481816 -0.012792094 0.01382052
-0.032568555 -0.029103754 0.007982894 0.008188161 0.051401187 -0.0076132393 -0.012858154 -0.021454653
0.026506124 0.051956195 0.010241129 0.003605924 0.017444452 -0.045136612 -0.01958432 -0.044690832

context_transformer_0/ffn_layer_0/intermediate_dense/einsum/Einsum;context_transformer_0/ffn_layer_0/intermediate_dense/Relu;context_transformer_0/ffn_layer_0/intermediate_dense/add f4 [32]
00000000: 630c 92be b7f2 acbe 71ec 9abe 5d19 a1be
00000010: 2cbf dbbe 6aff c5be f63e 4fbe 4b01 e8be
00000020: 525c b2be 7992 dbbe 9b26 11be d8b3 58be
00000030: 5383 31be d9dc afbe 4161 10be 21c7 c7bd
00000040: b117 e7bd 271d a6be dac0 8fbe 48a8 88be
00000050: 43df c7be 3618 a2be 9393 86be 4281 bfbe
00000060: 3a25 60be c4cc 7dbe 3515 97be a895 2bbe
00000070: b1cc 26be 3c2e 4abe 0db9 b7be a910 90be
-0.28525075 -0.33778927 -0.30258515 -0.31464663 -0.4291929 -0.38671428 -0.20238861 -0.45313486
-0.3483606 -0.42885187 -0.14174883 -0.21162355 -0.17335252 -0.3434818 -0.140996 -0.09754778
-0.11283816 -0.32444116 -0.28076822 -0.26690888 -0.39037523 -0.31659096 -0.26284465 -0.37403303
-0.21889201 -0.24785143 -0.29508367 -0.16756308 -0.16289021 -0.197442 -0.3588337 -0.2813771

context_transformer_0/attention/norm/mul;context_transformer_0/attention/norm/add;context_transformer_0/ffn_layer_0/intermediate_dense/einsum/Einsum;context_transformer_0/ffn_layer_0/intermediate_dense/Relu;context_transformer_0/ffn_layer_0/intermediate_dense/add f4 [32, 32]
00000000: b3f9 e2bd 330e 6dbe 116b 6f3e a951 6e3e
00000010: 94e4 2b3e aea8 50be 3382 27bc 10ec 463d
00000020: 09d2 d7be 9baf 55be a6f4 5a3e 8507 4dbc
00000030: 87dd 5b3e 59c3 ddbd b1b1 42be f518 953e
00000040: cf68 1abe 1892 48be 433c b5bd 97a4 30be
00000050: 48ea cebe 7a82 aa3d 844a 9b3d d824 0c3e
00000060: 997a 9bbc 94fa 393e 051d 59be ad2f de3d
00000070: fdac 5e3d c7ad 863e ec7e 803d 0e06 2f3d
00000080: cdae c33d 699d acbe ac17 77bd f3c3 5a3e
00000090: a203 883e 458b 4e3e 6a45 943c aad3 423e
000000a0: b165 293e 94a4 f33a 35f1 613e 3eee 83be
000000b0: 1982 8d3d e774 81be 2992 523d 3392 7a3d
000000c0: 31dd 66be 3ffe 60be 7dd0 c83e 1594 cbbd
000000d0: 4088 97bd 76f7 26be e9f2 a23d 162f e6bd
000000e0: 69ca 4bbe 484b 6f3e b858 cf3d 0cfc 9b3d
000000f0: 324b 28be c6aa 3b3d 619f 2e3e 5347 5ebd
00000100: 113f 443c 3f13 9e3c e637 e0bd 6b58 4a3e
00000110: c6b2 803e 0201 bc3e 1dbd a83d 76d9 3f3e
00000120: bc7e ad3d 9b75 b6bc 2135 333e 6ebe 97be
00000130: cac0 ac3d 35c4 dc3d 5d0d dcbc d583 833c
00000140: 31e1 37bd 629f 22be 4263 813e fb49 e9bd
00000150: 2c65 4abd 8668 12be caf9 e63d 77c8 7ebe
00000160: 90c2 8bbe ac20 743e 0e0d 833e d1bb 583e
00000170: 56d6 66be 996b 493e 92c9 a03e fd98 78bd
00000180: cebd 12bd 5cfd 60be d1d7 4b3e e54d d93d
00000190: 034a 203e 13d2 9e3e 2a02 073d bd7c 9e3d
000001a0: 8912 bcbc 2f5b 56bd 58c0 81bd eb94 52be
000001b0: 2b7a 3f3d 862d 53bd 9142 333d 7596 ad3d
000001c0: da28 343e c2c3 073d 72d8 aa3e b5b8 7fbe
000001d0: 3952 17bd b85b 5f3e ff39 b6bd 8771 8e3c
000001e0: 8a2d d13d 6bbf 7d3e e4ec 7e3e 52af 003e
000001f0: ce7f 18be 7544 afb9 ff54 bd3d e258 a53e
00000200: 182c bd3c d7ec bfbd 12da a3bc c235 3c3c
00000210: 1137 983e cf91 203e fbe8 fbbd 2b7f a13c
00000220: 0108 833c b88e 2dbd c4ed 84bd 258a 47be
00000230: 4f20 383d 131c cd3d 592a 67be 1bcc a43d
00000240: a1da e73c 914d 1c3e b760 b43e fee6 b7bd
00000250: cdfc 8c3c 04cf 493e 3513 8f3e 5327 923b
00000260: 2188 45bc 61c7 133e 488b 2c3e 2474 8c3e
00000270: 939d 78be da03 743d 9eb9 ef3d d161 b33e
00000280: ca63 96ba c33d 01be 25bb 373e ba97 b43d
00000290: 01d4 dd3d f216 863d 9121 4a3d 9a58 e23c
000002a0: 269e b5bc b0d4 873b e25b 7ebe c712 4ebe
000002b0: 5ce8 f63c ee2b 80bd ffbc a0bd 13ef a13d
000002c0: 0963 203e b8b9 3dbe 9101 863e d89b 9abd
000002d0: 8ec4 33be f84c ad3e c39f acbe fdd5 313e
000002e0: 0373 813e fad5 cd3c 4a7b 5f3e 8039 883d
000002f0: e5d0 fabd d8f4 983e fd91 b43d 623c 613e
00000300: 70df e23d 5787 603d 49b1 9cbd 9905 613d
00000310: b48c 9a3e 230f b83d cb8e 333f b073 a8be
00000320: 2797 2cbe 3511 88bb 429b 73be c1eb 57bd
00000330: 1eba 8b3d d271 bf3c ddfd 6dbe 0116 543e
00000340: 4f9e 533e 80d2 d2be a6ec 743d 4428 bcbd
00000350: 7a91 393d cfa1 f03c edea e33d 1130 163e
00000360: c32c 4cbe 61df 323e 9c3e ba3d c7ff bdbc
00000370: 7b19 a9be 064d 20be 0781 7c3e 9930 01be
00000380: 3ea3 513c c7b9 e6be 76c3 203e 32d4 0b3e
00000390: dda1 913d 07a1 aa3d 9f04 833e dfaf 1c3d
000003a0: 28c0 be3d 516f 79be 24ac 5f3e 56b2 1c3d
000003b0: 84ab a93d 4f95 62be a45d 113e 7464 d9bc
000003c0: 32d4 a2bd 2764 9ebd de7c 9b3d c535 6abe
000003d0: ee11 2c3e d8c2 e2bd 5edc 4cbe 173d 1ebe
000003e0: 608e aebd 3fd2 223e b26a 6cba a093 843d
000003f0: 1486 b2be b90f 913e 0c01 893e 0fa6 c83d
-0.110827826 -0.23149948 0.23380686 0.23273338 0.16786414 -0.20376846 -0.010223913 0.04856497
-0.42152432 -0.2086777 0.21382388 -0.012514 0.21471225 -0.10828275 -0.19013096 0.29120603
-0.15079044 -0.1958698 -0.08849385 -0.17250286 -0.40413117 0.08325668 0.07582572 0.1368593
-0.018979358 0.18161994 -0.21202476 0.10848937 0.054364193 0.26304457 0.062742084 0.042730384
0.09554825 -0.33713844 -0.06032531 0.21363811 0.26565272 0.20170315 0.018099505 0.19026056
0.16542698 0.0018588477 0.2206467 -0.25767702 0.0690958 -0.25284502 0.05140892 0.061174583
-0.22545315 -0.21971987 0.39221564 -0.09940354 -0.073990345 -0.16305336 0.07956488 -0.1123945
-0.19901432 0.23368561 0.10124344 0.076164335 -0.16434935 0.04581716 0.17052986 -0.05426724
0.011977927 0.019296287 -0.10948162 0.19760291 0.25136393 0.3671952 0.082391955 0.18735299
0.08471438 -0.022272876 0.17500736 -0.29637474 0.08435209 0.10779611 -0.02686184 0.016054073
-0.044892494 -0.15881112 0.2527104 -0.11391064 -0.04941289 -0.14297685 0.11278112 -0.24881159
-0.27296877 0.23840588 0.25595897 0.21165396 -0.225427 0.19669951 0.31403786 -0.060692776
-0.035825543 -0.21971649 0.19906546 0.1061056 0.15653233 0.3101965 0.03296105 0.07738636
-0.022958057 -0.052333053 -0.06335515 -0.2056462 0.046747368 -0.051557086 0.043764655 0.08475963
0.17593709 0.033145674 0.3336826 -0.24972804 -0.036943648 0.21812332 -0.088977806 0.017388118
0.10213764 0.24780051 0.24895054 0.1256688 -0.14892504 -0.00033429606 0.09244727 0.32294375
0.023092315 -0.093713455 -0.020001445 0.011487426 0.29729512 0.15680622 -0.12300297 0.019713959
0.015995027 -0.042372435 -0.06490663 -0.19486292 0.044952687 0.1001512 -0.22574748 0.080467425
0.028302493 0.15263964 0.35230038 -0.08979605 0.017210389 0.19707876 0.2794434 0.004460254
-0.012056381 0.14431526 0.16850007 0.27432358 -0.2427886 0.059573986 0.117053255 0.35035565
-0.0011473831 -0.12621216 0.17942484 0.08818002 0.10831452 0.06547345 0.049348418 0.02763014
-0.022170138 0.0041452274 -0.24839738 -0.2012435 0.030140094 -0.06258379 -0.07848548 0.07906928
0.15662779 -0.18527877 0.2617307 -0.07549256 -0.17555448 0.33847785 -0.3371564 0.17366786
0.2528306 0.025126446 0.21824375 0.06651592 -0.12246875 0.298743 0.088169076 0.2199569
0.110777736 0.05481657 -0.07651002 0.05493698 0.30185473 0.08987262 0.7013976 -0.32900763
-0.16854535 -0.004152442 -0.23789695 -0.052715067 0.068226084 0.023369703 -0.23241372 0.20711519
0.20665859 -0.41176224 0.059795998 -0.091873676 0.045304753 0.029374031 0.11128793 0.14666773
-0.1993895 0.17468025 0.09093973 -0.023193253 -0.33027253 -0.15654382 0.24658595 -0.12616195
0.012795268 -0.45063612 0.15699562 0.13655165 0.07110951 0.08331495 0.25589463 0.03825366
0.09313995 -0.2435887 0.2184301 0.038256012 0.08284667 -0.22127269 0.14195877 -0.026537158
-0.07950629 -0.07733946 0.07592176 -0.22872074 0.16803715 -0.1107232 -0.20005938 -0.15452991
-0.085232496 0.15900515 -0.00090185844 0.0647347 -0.34867918 0.28332308 0.2675861 0.09797298

context_transformer_0/ffn_layer_1/intermediate_dense/einsum/Einsum;context_transformer_0/ffn_layer_1/intermediate_dense/Relu;context_transformer_0/ffn_layer_1/intermediate_dense/add f4 [32]
00000000: 95ad 883d b44b 3dbd bd0e bbbe 4c68 f6bd
00000010: 431a 10bd 77fe 76bd 16f6 39be da26 c8bd
00000020: 0f0e de3d d52d 2fbe ebbd 87bd ef4e 8f3a
00000030: eaf4 57be 58e2 1c3e 453e 493e 367f 3ebe
00000040: cadc 64be 0f85 dcbe 9565 6fbd 7dbf 19be
00000050: d14d acbd 09d5 30bd 693b f2bd 43f2 8dbe
00000060: 551a 76be 4ed0 e6bd 322b 053e bfa6 b9be
00000070: a202 123e f0e4 99be 7cc1 a8be 7d6e 8c3d
0.06673733 -0.046214774 -0.36534682 -0.12031612 -0.035181295 -0.06030127 -0.1816028 -0.09773035
0.10842525 -0.17107327 -0.06628021 0.0010933558 -0.21089521 0.15320718 0.1965266 -0.18603215
-0.2234985 -0.43070266 -0.058446486 -0.15014453 -0.0841328 -0.043171916 -0.11827738 -0.27723894
-0.24033482 -0.112702 0.13004759 -0.3626003 0.14258817 -0.30057478 -0.32960117 0.068570115

context_transformer_0/ffn_layer_0/norm/mul;context_transformer_0/ffn_layer_0/norm/add;context_transformer_0/ffn_layer_1/intermediate_dense/einsum/Einsum;context_transformer_0/ffn_layer_1/intermediate_dense/Relu;context_transformer_0/ffn_layer_1/intermediate_dense/add f4 [32, 32]
00000000: 22b8 a33d 532b e8bd 4633 a6bd 4762 b83d
00000010: 71cb 153e 8a98 dd3d 27db 033f 5798 dfbd
00000020: 0df2 0dbe 91c0 bbbd 0ba6 3bbe 89b6 6ebe
00000030: 822c e33d c552 5e3e 9d4c 63bd 5ad9 413d
00000040: fa6e a03d 535a 44be 8bc2 423d 4450 0ebd
00000050: fc32 35bd c4a5 ad3d 9289 8c3d 1e75 073e
00000060: e258 86be 6d7b cb3d ecff 733e f7d7 653e
00000070: e472 ccbd 4cf7 aabd 1afa 5f3e 91d2 11be
00000080: fcf8 79be a07f a8be f596 ab3d e564 9c3d
00000090: 724f fabd 5135 a33d 346d 01be d966 3c3e
000000a0: dbaa 803e 0703 1bbd 96a4 30bd e703 b5bd
000000b0: 90ab 9b3d 481b e3bd b14b 743e 65fa 50be
000000c0: bee1 14be 5cef 5639 808a 983d c425 08be
000000d0: 4579 dfbd 0a3c 1a3e dd31 89be 1313 98bd
000000e0: ec10 903e f670 0f3d a671 7cbc fbe8 d43c
000000f0: 882a ba3d 9d67 4ebe 25bc aa3d 6e24 09be
00000100: 341a 8b3d 7b65 aabc 795d 553c 80b1 3a3d
00000110: 99a9 1cbe ef96 70be cc32 d1bb ea21 023e
00000120: 5265 09be 646f 0d3e 1897 98bd a3ae 403d
00000130: 228a 92bd ee45 933c f8f9 32be a794 313e
00000140: 2f7d 293d e947 21bd 91ff 9639 cd4f adbc
00000150: 1ec5 6cbd 42b9 763d 7779 b43d 9aad 0f3e
00000160: e361 c23d 5e7c cfbc 3903 11be c601 afbe
00000170: eab3 533d cd7c 0f3d fa52 4dbd de82 dbbd
00000180: f15d 0a3d 2e56 46bd 6ff2 953c 858e 0c3d
00000190: c8fc 7cba 63e0 763b b18f 783d 2c50 2ab9
000001a0: c9f9 223c d58a 44bc bd18 d4bc f7b9 22bd
000001b0: 8aae ba3c c885 433c ceaa bd3c f1d7 eabb
000001c0: 8540 953a 9c0e 63bc bbac 933b e572 7abc
000001d0: 4074 aabc 234b d83b 2986 403d 1c25 803c
000001e0: a2f4 99bc 8e63 2ebc 255f ae3c 3e61 b43c
000001f0: 33d6 a7bc 446d 2fbc d7d8 203d 9834 89bc
00000200: 2715 90be ddd3 4abe 7275 323e 522c a03d
00000210: 3c7c 71bd 8ba5 153e 4a23 46bc d2ff be3c
00000220: fe83 163d 5fd0 76be c5f2 b1bc 0949 9fbd
00000230: 1e45 ee3d 744d 1c3e 443b 993c b43c 37be
00000240: b8f3 d3bc 2abf 853d df59 13bc dc90 a3be
00000250: c107 7dbd 6786 853e 033e 6d3d e3c7 353e
00000260: 99f5 823e 395a fa3d 9299 113e 84cd a43c
00000270: 6f3c 4dbe 74c4 31be d850 ff3c 66f7 213d
00000280: 6007 8c3b 14e4 55bc f04a d93b d037 98bb
00000290: 9277 053d fb14 1cbb f769 ab3c b57d b73b
000002a0: e2bb d03b fc5b b5bc 03ed 75bc 7f03 ee3a
000002b0: 4d91 8dbb 27b4 8e3a 39f1 c83a 887d a33c
000002c0: 8c90 a9bc c7fe 7c3c 5164 2fbc 4d27 04bc
000002d0: 478f 7cbc 08da 673c 668a 823c e99e 50bc
000002e0: a058 53ba cb90 b33c ad08 353a 2751 573a
000002f0: 1c0e 65bc ae08 c0bc 5400 aa3b e650 f73b
00000300: d260 bd3c acd9 94bd 09cf 28bc 5edf 15bd
00000310: 0955 563d 160a 083e ab52 4e3e 7897 ef3c
00000320: d0c5 e63d e102 94be 3ef5 d73d 6774 26bd
00000330: f9b0 f23c 3aac 473e f7ff babc 0e82 71bd
00000340: 6f2f 773e 9787 e73d e9cb 563e 5e81 3dbd
00000350: d558 ad3d 465b 5e3d 9672 953d f990 8dbd
00000360: eacd 2abd 2202 c63d 5a7c d0bd e467 f3bc
00000370: 64f4 8dbc e408 d93d b6ac 593d efae 903d
00000380: 983d a13e d7fd c1bd dd96 0abe 9b64 48bd
00000390: 18d2 263e ee83 adbd debf 473d c70d 33bd
000003a0: 762f 40be d9e0 bfbd 211a 12be a64f 81be
000003b0: 8476 a1bd f4ae 1a3d 7ef7 ecbd 1d89 253d
000003c0: a96c 8fbe e5d0 ecbd b584 213e dae8 813d
000003d0: beed 76bd 4f0d 853e bdd0 6b3e b0d5 133e
000003e0: dbee 02bd f04f 063c b07b 813e 4b13 b63e
000003f0: 039d 8bbe f433 233e b5bd da3c 9599 b2bd
0.07994105 -0.113363884 -0.081152484 0.0900312 0.14628388 0.1082011 0.51506275 -0.109177284
-0.13861866 -0.091675885 -0.18325059 -0.23311819 0.110924736 0.21711262 -0.055492986 0.047326423
0.07833667 -0.19175081 0.047548812 -0.034744516 -0.044238076 0.08478883 0.06862177 0.1322827
-0.26239687 0.09935651 0.23828095 0.22445665 -0.09982851 -0.083479494 0.2187275 -0.14240481
-0.24411386 -0.3290987 0.08378402 0.076364316 -0.12222184 0.07969154 -0.12639314 0.18398608
0.25130352 -0.037844684 -0.04312571 -0.08838635 0.07601082 -0.11089188 0.23856999 -0.20408018
-0.14539239 0.00020497799 0.07448292 -0.13295656 -0.10911802 0.15061966 -0.26795855 -0.07425513
0.2813791 0.035019837 -0.015407955 0.02599 0.090901434 -0.20156713 0.08336667 -0.13392803
0.06792107 -0.020800343 0.013022774 0.045579433 -0.15299071 -0.23495077 -0.0063842293 0.1270825
-0.13417557 0.13812023 -0.07450694 0.047041547 -0.07155253 0.017977681 -0.17478168 0.17341863
0.04137915 -0.03937522 0.0002880064 -0.021156216 -0.057805173 0.06023527 0.0881223 0.14031067
0.09491327 -0.025327858 -0.14161386 -0.3418104 0.05168525 0.03503113 -0.05012796 -0.1071832
0.033780996 -0.04842203 0.018304078 0.034315605 -0.00096507045 0.0037670366 0.06068391 -0.0001624233
0.009947249 -0.011995991 -0.025890702 -0.03972813 0.022788305 0.011933751 0.023152735 -0.0071668555
0.0011387026 -0.013858464 0.004506675 -0.015286182 -0.020807385 0.006600754 0.047002945 0.015642695
-0.018793408 -0.010643853 0.021285603 0.022019025 -0.02048788 -0.010707203 0.039269295 -0.016748711
-0.28141138 -0.19807382 0.17427614 0.078209534 -0.05895637 0.14613931 -0.0120933745 0.023315344
0.03674697 -0.24102925 -0.021722207 -0.07777602 0.11634277 0.15263921 0.018705018 -0.1789425
-0.02587305 0.06530602 -0.008993595 -0.31946456 -0.061774973 0.26079103 0.057920467 0.17752032
0.25578 0.1222424 0.14218739 0.020117529 -0.20042585 -0.17360097 0.031166479 0.03954258
0.00427334 -0.013054866 0.0066312477 -0.0046453252 0.032584734 -0.0023816216 0.020924551 0.0055997022
0.0063700536 -0.022138588 -0.015010121 0.0018159001 -0.0043202997 0.001088743 0.0015330679 0.019957319
-0.020698808 0.015441603 -0.01070507 -0.008066011 -0.015415019 0.014151104 0.015935134 -0.0127332
-0.00080622174 0.021919629 0.0006905895 0.0008213692 -0.013980415 -0.023441639 0.0051880274 0.0075474856
0.023117457 -0.0726808 -0.010303267 -0.036589973 0.05232719 0.13285097 0.20148723 0.02924703
0.112681985 -0.28908446 0.10544823 -0.040638354 0.029625403 0.19499293 -0.022827132 -0.05896192
0.24139188 0.113051586 0.20976223 -0.046265952 0.08464209 0.054286264 0.07297246 -0.06912417
-0.04170028 0.096683756 -0.10179968 -0.029712625 -0.017328449 0.10597399 0.053143226 0.07064616
0.31492305 -0.09472244 -0.13534112 -0.04892407 0.16291082 -0.08472429 0.048766963 -0.04371431
-0.18768105 -0.09369058 -0.1426778 -0.2525608 -0.07883933 0.037764505 -0.11570643 0.040413965
-0.2801259 -0.11563281 0.1577328 0.06343241 -0.060285322 0.25986716 0.23028846 0.14436984
-0.03196607 0.0081977695 0.2528968 0.35561594 -0.27268228 0.15937787 0.026701787 -0.087207

context_transformer_0/ffn_layer_2/intermediate_dense/einsum/Einsum;context_transformer_0/ffn_layer_2/intermediate_dense/Relu;context_transformer_0/ffn_layer_2/intermediate_dense/add f4 [32]
00000000: e7b5 35be e8ea 01be 4d00 7fbd 4f1f debd
00000010: 42c3 11be 2a4b 6cbd c496 06be 35c6 c3bd
00000020: ffd2 1abe 436d 21be 2e24 92bc e00b 24be
00000030: 1536 edbd 6ca6 59be 74b2 01be 448f 203b
00000040: 3b31 8bbc 4b1b 28bd 9eec 9fbd 882b bdbd
00000050: 2dc5 a5bd c4b0 b7bd 6d71 143d 4cde 10be
00000060: 5819 27be d09a 1e3c f804 1cbe 37b1 9abe
00000070: feb2 93bd 6915 01bd 35d5 98bd 6649 013b
-0.17745171 -0.12687266 -0.062256146 -0.108458154 -0.14234641 -0.05768887 -0.1314345 -0.09559289
-0.15119551 -0.15764336 -0.017839517 -0.16020155 -0.11582581 -0.21254891 -0.1266573 0.0024499455
-0.016991248 -0.041041654 -0.07808803 -0.092368186 -0.08094249 -0.08969262 0.036240984 -0.141473
-0.16318262 0.009680465 -0.1523627 -0.3021333 -0.072118744 -0.03151456 -0.07462541 0.0019727587

context_transformer_0/ffn_layer_1/norm/mul;context_transformer_0/ffn_layer_1/norm/add;context_transformer_0/ffn_layer_2/intermediate_dense/einsum/Einsum;context_transformer_0/ffn_layer_2/intermediate_dense/Relu;context_transformer_0/ffn_layer_2/intermediate_dense/add f4 [32, 32]
00000000: 351e 9c3d 6059 70bc 5336 cbbd 8113 9cbd
00000010: 5972 f83d 658e abbc 4711 17bd 98cc babd
00000020: f111 8fbd 29b2 93bc 5800 b8bd c717 4bbe
00000030: 0c8c 1bbe 6c96 523d 1f33 d6bd f8c1 053e
00000040: e865 4a3d b70a b83b 545e 263e 5a11 5c3d
00000050: 7bc4 913c 3162 f6bc f493 8a3c 7e57 4abd
00000060: 8e69 b3bd a313 71be d891 e83c 3856 143e
00000070: 9076 223d f802 913d 69c2 47bc 9478 203e
00000080: b60f 393e c656 46be 7d4d debd 15f0 f03c
00000090: b9f9 30be 0c2d 6cbd 2c79 0bbe bba2 343e
000000a0: 3f71 30be 721f 9e3d 1cd1 133e 1e7f 113d
000000b0: 3049 7e3d e5f8 133e f82d eb3d f13f 44be
000000c0: 384d 133e b2fc f43b d67a 0bbd c8d0 2cbd
000000d0: 0332 f93d e10f 9a3e c048 a73e 07ee 8d3d
000000e0: a283 a9bb 1302 113e 955b fc3c 17ae 13be
000000f0: 317a 703d 851d 90be a1db e7bc 7ea3 c0bd
00000100: f162 573d abdb a5bd 6730 5e3d c1aa d33b
00000110: b63d ffbb 9ddf c7bd 1208 fa3d 32f7 a3bb
00000120: 778d 44bd 346a 96bd 9d3a 9cbc 1777 8c3c
00000130: c70b 56bc e3ea b23b afa5 4abc d89a 2c3d
00000140: 7210 513d 0cab 2cbd 9a84 10bd 0029 27bd
00000150: f34a ef3d 453e 4f3d e484 533d f4ed 56ba
00000160: 2634 b0bc 98e4 8ebc d240 d7bc fc55 a63c
00000170: 9fce 40bb 86be 3ebc 3f41 693d b332 31bd
00000180: 44f0 5cbd 783a 0cbc 70be ab3c 8161 89bd
00000190: 1758 34bb 385e 91bd bc4e 9a3e dd6d 44be
000001a0: d834 0bbc 8428 a23c 7edd b8bd ef2b 61bd
000001b0: 87c6 dabc 88cf 913d 9b70 0d3d 6ea8 8dbe
000001c0: 60fa a6bc ad1b 573e 70b8 01be e187 823c
000001d0: b3c1 463e ea9d ab3d b0e0 d53e d243 edba
000001e0: 1bb2 a63d a174 42bd d19b 6e3c b382 573e
000001f0: 2bf5 b53d d307 a4bd 6b57 52bd 8071 ddbd
00000200: 11e4 d5bd 2313 37be 27d1 813d b20c 3abd
00000210: a0e1 92be f768 bebe 6342 e63d 7e44 3c3e
00000220: a6d3 57bb b90e b7bc 67d4 6dbd 5a29 373e
00000230: 5a05 1cbd fbb0 5cbd 4ad1 833d 9967 84be
00000240: e635 fabd 797e d83c e808 47be f941 a7bc
00000250: cc7d 4dbd 2634 863e 6f1f 2e3e adbc 673d
00000260: 1e29 133e e278 b3bd 8fa2 d53a 5a09 d8bc
00000270: 17ae 2a3d 2806 7ebe 5ad8 afbd cd46 de3b
00000280: d114 cd3d 94e5 35be 9b92 9fba 1c81 33bd
00000290: e1de de3c a1b5 103d d8bd 053e 4cf6 8e3e
000002a0: 4ac2 57be 4626 99bd a95e 603d 4cef 55be
000002b0: 3148 b4bd d98a a03e 2227 ab3d c7d2 95be
000002c0: 8d24 563d ec3e 963d 3cf3 a7bd 5fc8 87ba
000002d0: 9346 7c3e 9957 d03e 6409 7c3e b2f2 273e
000002e0: a2bf acbd 9474 77bd 9b9d 0f3e c89e 1fbe
000002f0: 6257 86bd 821d 74be 9159 c8bd 526e febd
00000300: 5ea2 5abc e4a0 d9bc 93cb cbbb 12b0 9c3c
00000310: 71c0 8ebc a3a4 60bc 4ab1 8e3d 49a9 a4bc
00000320: 8a00 9839 be10 a0bc 25f6 13bc cf61 ef3c
00000330: 83c3 0d3c 6c02 573d f9f8 6e3c 34da 76bc
00000340: 7c67 adbc 462f 0ebc 0761 c3bc 4182 07bd
00000350: b28f a23c 4a14 f43c bd32 1e3d 7137 3c3b
00000360: 9aa7 e6bb 8e8c 5f3d aa75 06bc 3bb8 74bc
00000370: 8f07 b9bc b0ec 47bd 6487 593c 4925 ddbb
00000380: 8f66 bcb9 38d8 46bd d6d2 dbb9 6b54 39b9
00000390: 0179 5abc d8c1 883c c68b 273c 855f 303c
000003a0: b24c c2bc 12a4 4bbc 974e b9bc 8c17 57bc
000003b0: e4f4 8c3c d532 2f3c 19c3 593b 740b c9bb
000003c0: 6d76 dabc 21bf b83c dfe3 8e3b a4b7 8abc
000003d0: ca65 4e3b a037 97bc 1427 a63c ef42 87bb
000003e0: 7fbe 97bb fca8 623c ed8c 75bc cd94 8d3c
000003f0: 9c00 84bc 31db d83a 9a0e 903b f4ff 0d3b
0.07622949 -0.014669746 -0.09922471 -0.076209076 0.12131185 -0.020941922 -0.03688171 -0.091210544
-0.06985844 -0.01802929 -0.089844406 -0.19833289 -0.15190142 0.051412985 -0.10458969 0.13062274
0.04941359 0.0056165117 0.16246921 0.053727485 0.017793885 -0.030076118 0.016916253 -0.049399845
-0.08760367 -0.23542647 0.028389856 0.14486015 0.03966385 0.07080644 -0.012192347 0.15670997
0.180724 -0.19369039 -0.108546235 0.029411355 -0.17282762 -0.057660148 -0.13620442 0.17640202
-0.172307 0.077208415 0.14435238 0.03552162 0.062081516 0.14450414 0.11483377 -0.19165017
0.14384925 0.0074764127 -0.034052692 -0.042191297 0.12167742 0.3009024 0.3267269 0.06930166
-0.0051731626 0.14160948 0.030805388 -0.14421879 0.05871028 -0.28147522 -0.02830297 -0.09406184
0.052584592 -0.08098539 0.05424538 0.0064595644 -0.007789339 -0.09759448 0.122085705 -0.005003833
-0.047986474 -0.073444754 -0.019070918 0.01714663 -0.013064331 0.0054601296 -0.012368604 0.042139858
0.051041074 -0.04215531 -0.03528271 -0.040810585 0.11684217 0.050596494 0.051640406 -0.000819891
-0.021509241 -0.017442986 -0.026276026 0.020304672 -0.002942003 -0.011642104 0.05694699 -0.04326124
-0.053940073 -0.008558862 0.020964831 -0.067080505 -0.0027518326 -0.07098049 0.30138195 -0.19182535
-0.008496486 0.01979471 -0.09026621 -0.05497354 -0.026705993 0.071196616 0.034531217 -0.27667564
-0.02038306 0.21006651 -0.12668014 0.015933933 0.19409828 0.08379729 0.41772985 -0.0018101877
0.0813944 -0.047474507 0.014563517 0.21045952 0.08884653 -0.08009305 -0.0513529 -0.10812664
-0.10443891 -0.17878394 0.06338721 -0.045422263 -0.28687763 -0.37189457 0.11243131 0.18385503
-0.0032932549 -0.022345887 -0.05806389 0.17886868 -0.03809104 -0.05387972 0.06436403 -0.2586029
-0.122173116 0.026427494 -0.19436991 -0.0204172 -0.050168797 0.2621166 0.17004178 0.05657642
0.14371154 -0.08763291 0.0016299057 -0.026371647 0.04166993 -0.24807036 -0.08586188 0.0067833425
0.10013736 -0.17763358 -0.0012174429 -0.0438243 0.027205886 0.035329465 0.13060701 0.27922285
-0.21070209 -0.07478003 0.054777775 -0.20892066 -0.08802832 0.31355932 0.08357073 -0.29262373
0.05228095 0.0733622 -0.0820069 -0.0010359398 0.24636297 0.40691832 0.24612957 0.16401175
-0.084349886 -0.060413912 0.14024965 -0.15587914 -0.06559636 -0.23839381 -0.097827084 -0.12423386
-0.013344375 -0.026565976 -0.0062193363 0.019126926 -0.017425748 -0.013711127 0.06967409 -0.020100253
0.000289921 -0.019539233 -0.009030853 0.029221443 0.008652571 0.052492544 0.014585727 -0.015066672
-0.02116751 -0.008678263 -0.023849977 -0.033083204 0.01984391 0.02979483 0.038622607 0.002871957
-0.0070390226 0.054577403 -0.008206764 -0.014936502 -0.022586612 -0.048809707 0.013276909 -0.0067488295
-0.00035934566 -0.048546046 -0.0004192802 -0.00017674423 -0.013334514 0.016693994 0.010226196 0.010764961
-0.023718212 -0.012429254 -0.022620482 -0.013128173 0.017206617 0.010693272 0.003322786 -0.0061353985
-0.026667798 0.022552075 0.0043606604 -0.01693327 0.0031493776 -0.018459141 0.020282306 -0.004127852
-0.004630863 0.013834234 -0.014987213 0.017282868 -0.016113572 0.0016544816 0.004396272 0.0021667453

context_transformer_0/ffn_layer_3/intermediate_dense/einsum/Einsum;context_transformer_0/ffn_layer_3/intermediate_dense/Relu;context_transformer_0/ffn_layer_3/intermediate_dense/add f4 [32]
00000000: ff4f b8bd 2535 2e3b 757e 693d 8b28 00be
00000010: 65e2 68be 8c4d d8bd 1e62 95bc e789 4ebe
00000020: 418f fe3c 4e79 5dbd 76b8 a4be 2792 2abe
00000030: e4d4 a6bd 07cd 39be f9cc 4a3e 9cf9 58be
00000040: 7813 3cbe c9a0 5bbd 5dee 86bd 15a1 00be
00000050: c8da 90bd df9c c7bd fff3 8cbe b5f4 79be
00000060: 9ab6 dabc cc93 66bd b5f6 a03c 51b4 6bbd
00000070: 14f2 adbe 91df 0d3e cb1d f33b 4dda bdbd
-0.08999633 0.002658197 0.057005364 -0.12515466 -0.22742613 -0.10561666 -0.018235262 -0.20169793
0.031074168 -0.054070763 -0.32171983 -0.16657315 -0.081460744 -0.18144618 0.19804753 -0.21188968
-0.18366802 -0.053620134 -0.06588433 -0.12561448 -0.07072979 -0.09746718 -0.27529904 -0.24409755
-0.0266984 -0.056293294 0.01964889 -0.05754501 -0.33973753 0.13854815 0.007419323 -0.09270153
